chat_data.pth (torch, 4519 bytes, 6 tensors)

l1.weight f4 [8, 39]
00000000: 91d8 61be 6c0c 87be 8e9c 023f ef91 46be
00000010: c87d babd 9346 3ebe 5839 f3bd 09a3 87be
00000020: 3952 c2bd ac43 31be b4d8 00be 1b4c 3bbe
00000030: 43d6 a43e a6c6 e5be 2985 e03e 7085 dbbe
00000040: f2e2 ccbe 190b e6be f7d9 1dbe 0dac d5be
00000050: e274 2f3f 4b84 21be 1404 c13e f246 f3bd
00000060: 9f7d 1a3e 9917 0fbc 2690 423e 5799 2dbc
00000070: b4bc 7fbd 89dd 1ebd 134d 7a3e d20e 173f
00000080: d079 a83a a6a6 a5be db15 3c3f 39e8 f43e
00000090: 2a7e 413f 1973 4ebe 6eba 0c3f 6cfd d43e
000000a0: 126b f03e 3e10 183f 3b13 663e 488c a83e
000000b0: fa89 f03e c46d f83e 968d 613e a0e4 f4be
000000c0: 63c2 0b3f 7664 043f 1c2a 123e 8b35 ed3e
000000d0: 4f35 27bd 9161 92bd 88b3 4a3d 1af4 0c3e
000000e0: 1ee3 2cbd 3cb8 86be 87ee 6ebd 9bc8 733d
000000f0: 1745 c53e 2516 813d 0090 173e b8ec f03e
00000100: 5b8c f4be a307 9b3e 83cc 003f 3219 b83e
00000110: 69d1 1f3e 2a90 f73e e304 89bd 9d05 e1be
00000120: 496b cd3e 4884 9f3d c7be 6f3e b7ac 49bd
00000130: c18e 5fbe cee2 d5bd 5138 1e3e 4a28 b53e
00000140: 7dcc f7be a95d ba3e e43d 6f3e 9450 f73e
00000150: 460b 4a3e 7bd9 a53e 838e 503f 8224 d43e
00000160: 4a34 cc3e 91a7 ba3e 7912 00bf 805d b33e
00000170: e4f0 a8be ee49 c83e e522 ed3e 94e2 163f
00000180: eb2f 103f bd20 d63e 4374 5f3e 221f 173f
00000190: 2b15 753e 0028 f53e 9111 33be 1899 2b3f
000001a0: f18d 11be 9116 763e 31d5 5d3e 6fc8 a03d
000001b0: fdb5 35be eeaa 1d3e a7c7 e53e 8750 4a3f
000001c0: 8c2c 32bf 376a bbbe 5c3f 4b3e 05fe 463f
000001d0: ea8b 8a3e 3be0 b7be 0d27 cebe 48da ea3e
000001e0: c0e0 e8bd 5034 60be 9a54 cabe 765b 7bbe
000001f0: d564 d73e 7ee1 b2be 964c cdbe d6f6 f6be
00000200: c722 273e 501f d43e b375 bb3e 3058 b13e
00000210: b1a5 bc3e 47fc a73e 03d8 193e c02b 94be
00000220: daf6 c63e 610f 16be ceaa bdbe 01e3 6bbe
00000230: a54b babd a4c1 e03e c0a7 29bf 9819 bb3e
00000240: a798 d8bd 84de 02bd 5769 acbe 521e fe3e
00000250: bcae a7be 5fc7 b4be 9534 c4be 7af7 2a3f
00000260: b8c5 a83e a92f 96be c562 69be 11f6 34be
00000270: b574 723e af94 de3e a0a7 303f 9cf1 e73e
00000280: c844 b03e eba1 a93e babd 743e 2fdb 983d
00000290: 203e babe 6b31 2d3f 3622 0f3f 441e fcbc
000002a0: 52c8 ce3e 1cf1 013e 220a babd ba57 60bb
000002b0: 0522 4fbe 0bfd 113e 1cb7 c93d 6281 9b3c
000002c0: 1b36 5dbe ff80 363f 0c9f 7bbe a133 ac3e
000002d0: 2523 953e 90e9 dabe d491 4b3e 61ba e13e
000002e0: a090 e73e cb7f f43e 5f6c e53e 5ae1 e2be
000002f0: d30c 90be 9eca 193f e694 37be 5665 ab3a
00000300: e2bd 66be 83ff 47be 0f6f e4be 5c96 163e
00000310: d346 9bbe c658 03bf 5b14 d8be 1d7a 4bbc
00000320: 66f1 58be 6a2d 043e 42d5 ed3e a648 f53e
00000330: 7882 4fbe 2396 81be b03a 113f a67a 2dbf
00000340: b0c4 4a3f 17d7 cfbe 392f 3d3f c442 233f
00000350: 3952 603f 8057 d03e 3093 373f 9331 4a3f
00000360: b78f 81be 3aaa 0a3f 5469 80be fc5e c3be
00000370: 3ebc 1e3f 810b 7cbe 7153 fb3d 4ffd d6be
00000380: e1e4 8abe f32d a6be 5bb0 353f cb0e 2f3f
00000390: a718 e8be 8511 33bf f69b 99be 2728 3b3f
000003a0: 30fc 9c3e e24c 3c3f 07cb 0f3f b6a6 173f
000003b0: 982d 20be 8c64 ae3e 6cad 063f 1395 1f3f
000003c0: d183 183f dbd0 6abe 5d5f 5fbe 6a5a e83e
000003d0: 967e 0bbe 3088 9b3c 066c 79be b57c 64be
000003e0: 78ab 0c3f 55b6 66be d272 45be 4101 ffbe
000003f0: b6c3 4a3e 152a 61be db14 2f3f 762b 9fbe
-0.2205527 -0.26376665 0.51020133 -0.19391607 -0.09106022 -0.1858161 -0.11876172 -0.26491573
-0.09488339 -0.17310971 -0.12582666 -0.1829075 0.3219472 -0.4487812 0.43851593 -0.42875242
-0.40016896 -0.44930342 -0.15415178 -0.41732827 0.68537724 -0.15773122 0.37698424 -0.11878766
0.15086983 -0.008733653 0.19000301 -0.010595641 -0.06243582 -0.03878549 0.24443464 0.5900699
0.0012853686 -0.32353705 0.7347085 0.47833422 0.75583136 -0.20161094 0.5497197 0.41599596
0.46956688 0.59399784 0.22468273 0.32919526 0.46980268 0.48521245 0.22026667 -0.47830677
0.54593486 0.5171579 0.14273876 0.46329913 -0.040822323 -0.071475156 0.04948762 0.13764992
-0.042208783 -0.26312435 -0.058332946 0.059517484 0.38529274 0.06303052 0.14801025 0.47055602
-0.47763333 0.30279264 0.5031206 0.35956722 0.15607227 0.48352176 -0.06690385 -0.43949595
0.40120915 0.077889025 0.2341262 -0.04923698 -0.218318 -0.1044365 0.1545117 0.353823
-0.483982 0.36399582 0.23363453 0.48303664 0.19730863 0.32392487 0.81467456 0.41434103
0.39883643 0.36455968 -0.5002819 0.35032272 -0.32996285 0.39118904 0.46315685 0.5893948
0.56323117 0.41821852 0.21821694 0.5903188 0.23933856 0.4788208 -0.1748717 0.6703048
-0.14214303 0.24032046 0.21663357 0.0785073 -0.17745204 0.15397236 0.44878885 0.79029125
-0.69599223 -0.36604473 0.19848388 0.77731353 0.2705987 -0.35913262 -0.40264168 0.4586966
-0.11370993 -0.21894956 -0.3951767 -0.24546608 0.42069116 -0.34937662 -0.40097493 -0.48235196
0.1632186 0.4143014 0.36613235 0.34637594 0.36845163 0.3280966 0.15023808 -0.2893963
0.38860208 -0.14654304 -0.37044376 -0.23035814 -0.09096459 0.43897736 -0.6627159 0.36542964
-0.10575991 -0.03195049 -0.33674118 0.49632508 -0.327505 -0.35308358 -0.38321367 0.6678387
0.32963347 -0.29333237 -0.22791584 -0.17671992 0.23677333 0.43472812 0.69005775 0.4530152
0.34427476 0.33131346 0.239005 0.07463681 -0.36375523 0.6765353 0.55911577 -0.03077615
0.40387207 0.12689632 -0.09083964 -0.0034231977 -0.20227821 0.14256684 0.098493785 0.018982593
-0.21602671 0.7129058 -0.2457239 0.3363314 0.29128376 -0.4275632 0.19879848 0.44087508
0.45227528 0.47753748 0.44809243 -0.44312555 -0.28134784 0.60074794 -0.17927894 0.0013076465
-0.22533372 -0.19531064 -0.4461598 0.14705795 -0.30327472 -0.5130733 -0.4220303 -0.012419251
-0.21185836 0.12907949 0.46451765 0.4790699 -0.20264614 -0.25309858 0.56730175 -0.6776527
0.7920637 -0.40593788 0.7390018 0.6377375 0.8762546 0.40691757 0.71708965 0.78981894
-0.25304958 0.54165995 -0.2508036 -0.38158405 0.62005985 -0.24613763 0.122717746 -0.41990134
-0.27127746 -0.3245693 0.7097222 0.6838195 -0.45331308 -0.6994861 -0.300018 0.7310814
0.30661154 0.73554814 0.5616917 0.59238756 -0.15642393 0.34061086 0.5260837 0.62336844
0.59576136 -0.22931235 -0.21813722 0.4538148 -0.13622507 0.018985838 -0.24357614 -0.22313197
0.5494914 -0.22530492 -0.19282082 -0.49805644 0.1980122 -0.2198871 0.683912 -0.31087846

l1.bias f4 [8]
00000000: 4d18 e63e 60ae 753f e52f 323f 4097 5d3f
00000010: 8521 2b3f cbc3 343f a622 023f 6955 d53e
0.44940415 0.959692 0.6960433 0.86558914 0.6684802 0.70611256 0.5083412 0.41666725

l2.weight f4 [8, 8]
00000000: 3bee f3be 5595 ae3f 9e54 e63e ca2a 343f
00000010: 8c88 a23f 4a17 1abe 47e7 9bbe 342b 74bf
00000020: 43be c2bd 9b62 243e 40ab 973f 1658 84bf
00000030: e072 6f3d af5f 583f 7218 3e3f 11d5 e73e
00000040: c6ff 893f 1d3c b13e a319 8cbe f478 a5be
00000050: 10ab c23e 83fc d43c 1bf1 4c3f 724c 993f
00000060: 77ba 93be 1c8d 323f 5fe9 1b3e 8f2d 28bd
00000070: e2cd 833f 4c67 95bf 77e2 343f f8c9 853f
00000080: 761c 56bf 08d6 17be 7619 a93f eb4b e9be
00000090: 845e e33e ac53 af3f 7024 643e f542 013f
000000a0: 2c39 aebd 3637 79bd 2a51 8abe 00da b9bd
000000b0: c9d6 633e 1eee 1e3d 2a8c 1fbe f490 95bd
000000c0: f0d5 603f b9d6 bd3e cad8 f73e b936 ff3d
000000d0: 2d60 5f3f bb5d 78bf 745b e2be be1b 7dbf
000000e0: 7acf 923f fbf5 323f b235 66bf e9fb cd3f
000000f0: 03bd 15be 4c03 913e dc09 973f df32 183f
-0.47642693 1.3639323 0.44986433 0.7037779 1.2697921 -0.15047947 -0.30449888 -0.9537842
-0.09508946 0.1605324 1.1849136 -1.0339382 0.058459163 0.84521 0.7425605 0.45279744
1.0781181 0.34616175 -0.2736331 -0.32318842 0.38021135 0.025999313 0.800554 1.1976454
-0.288532 0.69746566 0.15225743 -0.041059073 1.0297205 -1.1672149 0.7065806 1.0452261
-0.8363718 -0.1482774 1.3210895 -0.45565733 0.44408047 1.369741 0.22279525 0.50492793
-0.085069984 -0.06084367 -0.27015048 -0.09074783 0.22249903 0.038801305 -0.15580812 -0.07303038
0.8782644 0.37077883 0.48407584 0.124616094 0.8725613 -0.9701802 -0.44210398 -0.98870456
1.1469567 0.69906586 -0.8992568 1.6092502 -0.14622883 0.28322828 1.1799884 0.59452623

l2.bias f4 [8]
00000000: 1b03 0b3f c15b 813e 7625 65be d761 1dbd
00000010: 4439 1b3f 3252 a5bb 1728 cbbd 167c 413f
0.54301614 0.25265315 -0.22377571 -0.038423385 0.60634255 -0.005045199 -0.09919756 0.75579965

l3.weight f4 [7, 8]
00000000: 4c56 8ebf 62ab 333f 1307 29bf db14 9dbe
00000010: 1fb0 4e3f 13a1 adbe c1de 11bf 7067 97bf
00000020: 082d 1e3f 7ea0 143e 1446 44bf edf2 b13e
00000030: 4b0b 85be e8b3 b8be 0883 8b3f 3784 b8bf
00000040: b09a 4b3f c809 97bf 6cfd 6abf a286 293d
00000050: 60e6 a9bf 1729 84be cc16 473f 3bbc ae3e
00000060: fbc7 283f c27a f3bd 8afd c1bf 8756 8fbf
00000070: 1e17 143f 1270 ad3d 39ef 79bf eeca 403e
00000080: 75ec c2bf 8593 013f 0fc5 9f3e 9e34 4ebf
00000090: c41d 33be 10d2 0d3e 6ee4 5ebf 4896 dc3e
000000a0: 04f9 83be cd2f 1c3e 822b 8a3e 9829 4d3f
000000b0: 84ac b1bd e197 abbe 12f9 86bf 6f9f 01bf
000000c0: 65a4 86bf 696b 1abf b9ca dc3e 5b0e 0c3f
000000d0: 087b aabf e227 543d b99b cfbf f780 3b3f
-1.1120086 0.70183384 -0.6602642 -0.30679974 0.8073749 -0.33911952 -0.5698052 -1.1828442
0.6178746 0.14514348 -0.7666943 0.3475565 -0.25985178 -0.36074758 1.0899363 -1.4415349
0.7953291 -1.179986 -0.9179294 0.04138816 -1.327343 -0.258126 0.7776916 0.34127983
0.65930146 -0.118886486 -1.5155499 -1.1198281 0.57847774 0.08468641 -0.9763065 0.18827412
-1.5228411 0.5061572 0.3120503 -0.8054904 -0.17491823 0.13849664 -0.87067306 0.43083405
-0.2577592 0.1525261 0.2698632 0.8014159 -0.08675483 -0.33514312 -1.054476 -0.506339
-1.0518919 -0.60320145 0.43123415 0.54709405 -1.3318796 0.051795848 -1.6219398 0.7324366

l3.bias f4 [7]
00000000: 1394 163e 0702 b8be ba30 133d 1151 0d3f
00000010: 16f1 013e 9e0e 81be f1a5 873e
0.14704923 -0.35939047 0.03593514 0.5520182 0.12689623 -0.25206465 0.2649379
